{"format": "layers-model", "generatedBy": "keras v2.11.0", "convertedBy": "TensorFlow.js Converter v4.2.0", "modelTopology": {"keras_version": "2.11.0", "backend": "tensorflow", "model_config": {"class_name": "Functional", "config": {"name": "model_1_ex2_fix", "layers": [{"class_name": "InputLayer", "config": {"batch_input_shape": [null, 256, 256, 3], "dtype": "float32", "sparse": false, "ragged": false, "name": "input_5"}, "name": "input_5", "inbound_nodes": []}, {"class_name": "Rescaling", "config": {"name": "rescaling_4", "trainable": true, "dtype": "float32", "scale": 0.00392156862745098, "offset": 0.0}, "name": "rescaling_4", "inbound_nodes": [[["input_5", 0, 0, {}]]]}, {"class_name": "Conv2D", "config": {"name": "conv2d_24", "trainable": true, "dtype": "float32", "filters": 32, "kernel_size": [3, 3], "strides": [2, 2], "padding": "same", "data_format": "channels_last", "dilation_rate": [1, 1], "groups": 1, "activation": "linear", "use_bias": true, "depthwise_initializer": {"class_name": "GlorotUniform", "config": {"seed": null}}, "bias_initializer": {"class_name": "Zeros", "config": {}}, "depthwise_regularizer": null, "bias_regularizer": null, "activity_regularizer": null, "depthwise_constraint": null, "bias_constraint": null}, "name": "conv2d_24", "inbound_nodes": [[["rescaling_4", 0, 0, {}]]]}, {"class_name": "MaxPooling2D", "config": {"name": "max_pooling2d_24", "trainable": true, "dtype": "float32", "pool_size": [2, 2], "padding": "valid", "strides": [2, 2], "data_format": "channels_last"}, "name": "max_pooling2d_24", "inbound_nodes": [[["conv2d_24", 0, 0, {}]]]}, {"class_name": "BatchNormalization", "config": {"name": "batch_normalization_52", "trainable": true, "dtype": "float32", "axis": [3], "momentum": 0.99, "epsilon": 0.001, "center": true, "scale": true, "beta_initializer": {"class_name": "Zeros", "config": {}}, "gamma_initializer": {"class_name": "Ones", "config": {}}, "moving_mean_initializer": {"class_name": "Zeros", "config": {}}, "moving_variance_initializer": {"class_name": "Ones", "config": {}}, "beta_regularizer": null, "gamma_regularizer": null, "beta_constraint": null, "gamma_constraint": null}, "name": "batch_normalization_52", "inbound_nodes": [[["max_pooling2d_24", 0, 0, {}]]]}, {"class_name": "Activation", "config": {"name": "activation_48", "trainable": true, "dtype": "float32", "activation": "relu"}, "name": "activation_48", "inbound_nodes": [[["batch_normalization_52", 0, 0, {}]]]}, {"class_name": "Conv2D", "config": {"name": "conv2d_25", "trainable": true, "dtype": "float32", "filters": 64, "kernel_size": [3, 3], "strides": [1, 1], "padding": "same", "data_format": "channels_last", "dilation_rate": [1, 1], "groups": 1, "activation": "linear", "use_bias": true, "depthwise_initializer": {"class_name": "GlorotUniform", "config": {"seed": null}}, "bias_initializer": {"class_name": "Zeros", "config": {}}, "depthwise_regularizer": null, "bias_regularizer": null, "activity_regularizer": null, "depthwise_constraint": null, "bias_constraint": null}, "name": "conv2d_25", "inbound_nodes": [[["activation_48", 0, 0, {}]]]}, {"class_name": "BatchNormalization", "config": {"name": "batch_normalization_53", "trainable": true, "dtype": "float32", "axis": [3], "momentum": 0.99, "epsilon": 0.001, "center": true, "scale": true, "beta_initializer": {"class_name": "Zeros", "config": {}}, "gamma_initializer": {"class_name": "Ones", "config": {}}, "moving_mean_initializer": {"class_name": "Zeros", "config": {}}, "moving_variance_initializer": {"class_name": "Ones", "config": {}}, "beta_regularizer": null, "gamma_regularizer": null, "beta_constraint": null, "gamma_constraint": null}, "name": "batch_normalization_53", "inbound_nodes": [[["conv2d_25", 0, 0, {}]]]}, {"class_name": "MaxPooling2D", "config": {"name": "max_pooling2d_25", "trainable": true, "dtype": "float32", "pool_size": [2, 2], "padding": "same", "strides": [2, 2], "data_format": "channels_last"}, "name": "max_pooling2d_25", "inbound_nodes": [[["batch_normalization_53", 0, 0, {}]]]}, {"class_name": "Activation", "config": {"name": "activation_49", "trainable": true, "dtype": "float32", "activation": "relu"}, "name": "activation_49", "inbound_nodes": [[["max_pooling2d_25", 0, 0, {}]]]}, {"class_name": "SeparableConv2D", "config": {"name": "separable_conv2d_44", "trainable": true, "dtype": "float32", "filters": 128, "kernel_size": [3, 3], "strides": [1, 1], "padding": "same", "data_format": "channels_last", "dilation_rate": [1, 1], "groups": 1, "activation": "linear", "use_bias": true, "depthwise_initializer": {"class_name": "GlorotUniform", "config": {"seed": null}}, "bias_initializer": {"class_name": "Zeros", "config": {}, "shared_object_id": 24}, "depthwise_regularizer": null, "bias_regularizer": null, "activity_regularizer": null, "depthwise_constraint": null, "bias_constraint": null, "depth_multiplier": 1, "depthwise_initializer": {"class_name": "GlorotUniform", "config": {"seed": null}}, "pointwise_initializer": {"class_name": "GlorotUniform", "config": {"seed": null}}, "depthwise_regularizer": null, "pointwise_regularizer": null, "depthwise_constraint": null, "pointwise_constraint": null}, "name": "separable_conv2d_44", "inbound_nodes": [[["activation_49", 0, 0, {}]]]}, {"class_name": "BatchNormalization", "config": {"name": "batch_normalization_54", "trainable": true, "dtype": "float32", "axis": [3], "momentum": 0.99, "epsilon": 0.001, "center": true, "scale": true, "beta_initializer": {"class_name": "Zeros", "config": {}}, "gamma_initializer": {"class_name": "Ones", "config": {}}, "moving_mean_initializer": {"class_name": "Zeros", "config": {}}, "moving_variance_initializer": {"class_name": "Ones", "config": {}}, "beta_regularizer": null, "gamma_regularizer": null, "beta_constraint": null, "gamma_constraint": null}, "name": "batch_normalization_54", "inbound_nodes": [[["separable_conv2d_44", 0, 0, {}]]]}, {"class_name": "MaxPooling2D", "config": {"name": "max_pooling2d_26", "trainable": true, "dtype": "float32", "pool_size": [2, 2], "padding": "same", "strides": [2, 2], "data_format": "channels_last"}, "name": "max_pooling2d_26", "inbound_nodes": [[["batch_normalization_54", 0, 0, {}]]]}, {"class_name": "Conv2D", "config": {"name": "conv2d_26", "trainable": true, "dtype": "float32", "filters": 128, "kernel_size": [3, 3], "strides": [2, 2], "padding": "same", "data_format": "channels_last", "dilation_rate": [1, 1], "groups": 1, "activation": "linear", "use_bias": true, "depthwise_initializer": {"class_name": "GlorotUniform", "config": {"seed": null}}, "bias_initializer": {"class_name": "Zeros", "config": {}}, "depthwise_regularizer": null, "bias_regularizer": null, "activity_regularizer": null, "depthwise_constraint": null, "bias_constraint": null}, "name": "conv2d_26", "inbound_nodes": [[["max_pooling2d_25", 0, 0, {}]]]}, {"class_name": "Add", "config": {"name": "add_24", "trainable": true, "dtype": "float32"}, "name": "add_24", "inbound_nodes": [[["max_pooling2d_26", 0, 0, {}], ["conv2d_26", 0, 0, {}]]]}, {"class_name": "Activation", "config": {"name": "activation_50", "trainable": true, "dtype": "float32", "activation": "relu"}, "name": "activation_50", "inbound_nodes": [[["add_24", 0, 0, {}]]]}, {"class_name": "SeparableConv2D", "config": {"name": "separable_conv2d_45", "trainable": true, "dtype": "float32", "filters": 256, "kernel_size": [3, 3], "strides": [1, 1], "padding": "same", "data_format": "channels_last", "dilation_rate": [1, 1], "groups": 1, "activation": "linear", "use_bias": true, "depthwise_initializer": {"class_name": "GlorotUniform", "config": {"seed": null}}, "bias_initializer": {"class_name": "Zeros", "config": {}, "shared_object_id": 40}, "depthwise_regularizer": null, "bias_regularizer": null, "activity_regularizer": null, "depthwise_constraint": null, "bias_constraint": null, "depth_multiplier": 1, "depthwise_initializer": {"class_name": "GlorotUniform", "config": {"seed": null}}, "pointwise_initializer": {"class_name": "GlorotUniform", "config": {"seed": null}}, "depthwise_regularizer": null, "pointwise_regularizer": null, "depthwise_constraint": null, "pointwise_constraint": null}, "name": "separable_conv2d_45", "inbound_nodes": [[["activation_50", 0, 0, {}]]]}, {"class_name": "BatchNormalization", "config": {"name": "batch_normalization_55", "trainable": true, "dtype": "float32", "axis": [3], "momentum": 0.99, "epsilon": 0.001, "center": true, "scale": true, "beta_initializer": {"class_name": "Zeros", "config": {}}, "gamma_initializer": {"class_name": "Ones", "config": {}}, "moving_mean_initializer": {"class_name": "Zeros", "config": {}}, "moving_variance_initializer": {"class_name": "Ones", "config": {}}, "beta_regularizer": null, "gamma_regularizer": null, "beta_constraint": null, "gamma_constraint": null}, "name": "batch_normalization_55", "inbound_nodes": [[["separable_conv2d_45", 0, 0, {}]]]}, {"class_name": "MaxPooling2D", "config": {"name": "max_pooling2d_27", "trainable": true, "dtype": "float32", "pool_size": [2, 2], "padding": "same", "strides": [2, 2], "data_format": "channels_last"}, "name": "max_pooling2d_27", "inbound_nodes": [[["batch_normalization_55", 0, 0, {}]]]}, {"class_name": "Conv2D", "config": {"name": "conv2d_27", "trainable": true, "dtype": "float32", "filters": 256, "kernel_size": [3, 3], "strides": [2, 2], "padding": "same", "data_format": "channels_last", "dilation_rate": [1, 1], "groups": 1, "activation": "linear", "use_bias": true, "depthwise_initializer": {"class_name": "GlorotUniform", "config": {"seed": null}}, "bias_initializer": {"class_name": "Zeros", "config": {}}, "depthwise_regularizer": null, "bias_regularizer": null, "activity_regularizer": null, "depthwise_constraint": null, "bias_constraint": null}, "name": "conv2d_27", "inbound_nodes": [[["add_24", 0, 0, {}]]]}, {"class_name": "Add", "config": {"name": "add_25", "trainable": true, "dtype": "float32"}, "name": "add_25", "inbound_nodes": [[["max_pooling2d_27", 0, 0, {}], ["conv2d_27", 0, 0, {}]]]}, {"class_name": "Activation", "config": {"name": "activation_51", "trainable": true, "dtype": "float32", "activation": "relu"}, "name": "activation_51", "inbound_nodes": [[["add_25", 0, 0, {}]]]}, {"class_name": "SeparableConv2D", "config": {"name": "separable_conv2d_46", "trainable": true, "dtype": "float32", "filters": 512, "kernel_size": [3, 3], "strides": [1, 1], "padding": "same", "data_format": "channels_last", "dilation_rate": [1, 1], "groups": 1, "activation": "linear", "use_bias": true, "depthwise_initializer": {"class_name": "GlorotUniform", "config": {"seed": null}}, "bias_initializer": {"class_name": "Zeros", "config": {}, "shared_object_id": 56}, "depthwise_regularizer": null, "bias_regularizer": null, "activity_regularizer": null, "depthwise_constraint": null, "bias_constraint": null, "depth_multiplier": 1, "depthwise_initializer": {"class_name": "GlorotUniform", "config": {"seed": null}}, "pointwise_initializer": {"class_name": "GlorotUniform", "config": {"seed": null}}, "depthwise_regularizer": null, "pointwise_regularizer": null, "depthwise_constraint": null, "pointwise_constraint": null}, "name": "separable_conv2d_46", "inbound_nodes": [[["activation_51", 0, 0, {}]]]}, {"class_name": "BatchNormalization", "config": {"name": "batch_normalization_56", "trainable": true, "dtype": "float32", "axis": [3], "momentum": 0.99, "epsilon": 0.001, "center": true, "scale": true, "beta_initializer": {"class_name": "Zeros", "config": {}}, "gamma_initializer": {"class_name": "Ones", "config": {}}, "moving_mean_initializer": {"class_name": "Zeros", "config": {}}, "moving_variance_initializer": {"class_name": "Ones", "config": {}}, "beta_regularizer": null, "gamma_regularizer": null, "beta_constraint": null, "gamma_constraint": null}, "name": "batch_normalization_56", "inbound_nodes": [[["separable_conv2d_46", 0, 0, {}]]]}, {"class_name": "MaxPooling2D", "config": {"name": "max_pooling2d_28", "trainable": true, "dtype": "float32", "pool_size": [2, 2], "padding": "same", "strides": [2, 2], "data_format": "channels_last"}, "name": "max_pooling2d_28", "inbound_nodes": [[["batch_normalization_56", 0, 0, {}]]]}, {"class_name": "Conv2D", "config": {"name": "conv2d_28", "trainable": true, "dtype": "float32", "filters": 512, "kernel_size": [3, 3], "strides": [2, 2], "padding": "same", "data_format": "channels_last", "dilation_rate": [1, 1], "groups": 1, "activation": "linear", "use_bias": true, "depthwise_initializer": {"class_name": "GlorotUniform", "config": {"seed": null}}, "bias_initializer": {"class_name": "Zeros", "config": {}}, "depthwise_regularizer": null, "bias_regularizer": null, "activity_regularizer": null, "depthwise_constraint": null, "bias_constraint": null}, "name": "conv2d_28", "inbound_nodes": [[["add_25", 0, 0, {}]]]}, {"class_name": "Add", "config": {"name": "add_26", "trainable": true, "dtype": "float32"}, "name": "add_26", "inbound_nodes": [[["max_pooling2d_28", 0, 0, {}], ["conv2d_28", 0, 0, {}]]]}, {"class_name": "Activation", "config": {"name": "activation_52", "trainable": true, "dtype": "float32", "activation": "relu"}, "name": "activation_52", "inbound_nodes": [[["add_26", 0, 0, {}]]]}, {"class_name": "SeparableConv2D", "config": {"name": "separable_conv2d_47", "trainable": true, "dtype": "float32", "filters": 512, "kernel_size": [3, 3], "strides": [1, 1], "padding": "same", "data_format": "channels_last", "dilation_rate": [1, 1], "groups": 1, "activation": "linear", "use_bias": true, "depthwise_initializer": {"class_name": "GlorotUniform", "config": {"seed": null}}, "bias_initializer": {"class_name": "Zeros", "config": {}, "shared_object_id": 72}, "depthwise_regularizer": null, "bias_regularizer": null, "activity_regularizer": null, "depthwise_constraint": null, "bias_constraint": null, "depth_multiplier": 1, "depthwise_initializer": {"class_name": "GlorotUniform", "config": {"seed": null}}, "pointwise_initializer": {"class_name": "GlorotUniform", "config": {"seed": null}}, "depthwise_regularizer": null, "pointwise_regularizer": null, "depthwise_constraint": null, "pointwise_constraint": null}, "name": "separable_conv2d_47", "inbound_nodes": [[["activation_52", 0, 0, {}]]]}, {"class_name": "BatchNormalization", "config": {"name": "batch_normalization_57", "trainable": true, "dtype": "float32", "axis": [3], "momentum": 0.99, "epsilon": 0.001, "center": true, "scale": true, "beta_initializer": {"class_name": "Zeros", "config": {}}, "gamma_initializer": {"class_name": "Ones", "config": {}}, "moving_mean_initializer": {"class_name": "Zeros", "config": {}}, "moving_variance_initializer": {"class_name": "Ones", "config": {}}, "beta_regularizer": null, "gamma_regularizer": null, "beta_constraint": null, "gamma_constraint": null}, "name": "batch_normalization_57", "inbound_nodes": [[["separable_conv2d_47", 0, 0, {}]]]}, {"class_name": "Activation", "config": {"name": "activation_53", "trainable": true, "dtype": "float32", "activation": "relu"}, "name": "activation_53", "inbound_nodes": [[["batch_normalization_57", 0, 0, {}]]]}, {"class_name": "SeparableConv2D", "config": {"name": "separable_conv2d_48", "trainable": true, "dtype": "float32", "filters": 512, "kernel_size": [3, 3], "strides": [1, 1], "padding": "same", "data_format": "channels_last", "dilation_rate": [1, 1], "groups": 1, "activation": "linear", "use_bias": true, "depthwise_initializer": {"class_name": "GlorotUniform", "config": {"seed": null}}, "bias_initializer": {"class_name": "Zeros", "config": {}, "shared_object_id": 83}, "depthwise_regularizer": null, "bias_regularizer": null, "activity_regularizer": null, "depthwise_constraint": null, "bias_constraint": null, "depth_multiplier": 1, "depthwise_initializer": {"class_name": "GlorotUniform", "config": {"seed": null}}, "pointwise_initializer": {"class_name": "GlorotUniform", "config": {"seed": null}}, "depthwise_regularizer": null, "pointwise_regularizer": null, "depthwise_constraint": null, "pointwise_constraint": null}, "name": "separable_conv2d_48", "inbound_nodes": [[["activation_53", 0, 0, {}]]]}, {"class_name": "BatchNormalization", "config": {"name": "batch_normalization_58", "trainable": true, "dtype": "float32", "axis": [3], "momentum": 0.99, "epsilon": 0.001, "center": true, "scale": true, "beta_initializer": {"class_name": "Zeros", "config": {}}, "gamma_initializer": {"class_name": "Ones", "config": {}}, "moving_mean_initializer": {"class_name": "Zeros", "config": {}}, "moving_variance_initializer": {"class_name": "Ones", "config": {}}, "beta_regularizer": null, "gamma_regularizer": null, "beta_constraint": null, "gamma_constraint": null}, "name": "batch_normalization_58", "inbound_nodes": [[["separable_conv2d_48", 0, 0, {}]]]}, {"class_name": "Activation", "config": {"name": "activation_54", "trainable": true, "dtype": "float32", "activation": "relu"}, "name": "activation_54", "inbound_nodes": [[["batch_normalization_58", 0, 0, {}]]]}, {"class_name": "SeparableConv2D", "config": {"name": "separable_conv2d_49", "trainable": true, "dtype": "float32", "filters": 512, "kernel_size": [3, 3], "strides": [1, 1], "padding": "same", "data_format": "channels_last", "dilation_rate": [1, 1], "groups": 1, "activation": "linear", "use_bias": true, "depthwise_initializer": {"class_name": "GlorotUniform", "config": {"seed": null}}, "bias_initializer": {"class_name": "Zeros", "config": {}, "shared_object_id": 94}, "depthwise_regularizer": null, "bias_regularizer": null, "activity_regularizer": null, "depthwise_constraint": null, "bias_constraint": null, "depth_multiplier": 1, "depthwise_initializer": {"class_name": "GlorotUniform", "config": {"seed": null}}, "pointwise_initializer": {"class_name": "GlorotUniform", "config": {"seed": null}}, "depthwise_regularizer": null, "pointwise_regularizer": null, "depthwise_constraint": null, "pointwise_constraint": null}, "name": "separable_conv2d_49", "inbound_nodes": [[["activation_54", 0, 0, {}]]]}, {"class_name": "BatchNormalization", "config": {"name": "batch_normalization_59", "trainable": true, "dtype": "float32", "axis": [3], "momentum": 0.99, "epsilon": 0.001, "center": true, "scale": true, "beta_initializer": {"class_name": "Zeros", "config": {}}, "gamma_initializer": {"class_name": "Ones", "config": {}}, "moving_mean_initializer": {"class_name": "Zeros", "config": {}}, "moving_variance_initializer": {"class_name": "Ones", "config": {}}, "beta_regularizer": null, "gamma_regularizer": null, "beta_constraint": null, "gamma_constraint": null}, "name": "batch_normalization_59", "inbound_nodes": [[["separable_conv2d_49", 0, 0, {}]]]}, {"class_name": "Add", "config": {"name": "add_27", "trainable": true, "dtype": "float32"}, "name": "add_27", "inbound_nodes": [[["batch_normalization_59", 0, 0, {}], ["add_26", 0, 0, {}]]]}, {"class_name": "Activation", "config": {"name": "activation_55", "trainable": true, "dtype": "float32", "activation": "relu"}, "name": "activation_55", "inbound_nodes": [[["add_27", 0, 0, {}]]]}, {"class_name": "SeparableConv2D", "config": {"name": "separable_conv2d_50", "trainable": true, "dtype": "float32", "filters": 512, "kernel_size": [3, 3], "strides": [1, 1], "padding": "same", "data_format": "channels_last", "dilation_rate": [1, 1], "groups": 1, "activation": "linear", "use_bias": true, "depthwise_initializer": {"class_name": "GlorotUniform", "config": {"seed": null}}, "bias_initializer": {"class_name": "Zeros", "config": {}, "shared_object_id": 106}, "depthwise_regularizer": null, "bias_regularizer": null, "activity_regularizer": null, "depthwise_constraint": null, "bias_constraint": null, "depth_multiplier": 1, "depthwise_initializer": {"class_name": "GlorotUniform", "config": {"seed": null}}, "pointwise_initializer": {"class_name": "GlorotUniform", "config": {"seed": null}}, "depthwise_regularizer": null, "pointwise_regularizer": null, "depthwise_constraint": null, "pointwise_constraint": null}, "name": "separable_conv2d_50", "inbound_nodes": [[["activation_55", 0, 0, {}]]]}, {"class_name": "BatchNormalization", "config": {"name": "batch_normalization_60", "trainable": true, "dtype": "float32", "axis": [3], "momentum": 0.99, "epsilon": 0.001, "center": true, "scale": true, "beta_initializer": {"class_name": "Zeros", "config": {}}, "gamma_initializer": {"class_name": "Ones", "config": {}}, "moving_mean_initializer": {"class_name": "Zeros", "config": {}}, "moving_variance_initializer": {"class_name": "Ones", "config": {}}, "beta_regularizer": null, "gamma_regularizer": null, "beta_constraint": null, "gamma_constraint": null}, "name": "batch_normalization_60", "inbound_nodes": [[["separable_conv2d_50", 0, 0, {}]]]}, {"class_name": "Activation", "config": {"name": "activation_56", "trainable": true, "dtype": "float32", "activation": "relu"}, "name": "activation_56", "inbound_nodes": [[["batch_normalization_60", 0, 0, {}]]]}, {"class_name": "SeparableConv2D", "config": {"name": "separable_conv2d_51", "trainable": true, "dtype": "float32", "filters": 512, "kernel_size": [3, 3], "strides": [1, 1], "padding": "same", "data_format": "channels_last", "dilation_rate": [1, 1], "groups": 1, "activation": "linear", "use_bias": true, "depthwise_initializer": {"class_name": "GlorotUniform", "config": {"seed": null}}, "bias_initializer": {"class_name": "Zeros", "config": {}, "shared_object_id": 117}, "depthwise_regularizer": null, "bias_regularizer": null, "activity_regularizer": null, "depthwise_constraint": null, "bias_constraint": null, "depth_multiplier": 1, "depthwise_initializer": {"class_name": "GlorotUniform", "config": {"seed": null}}, "pointwise_initializer": {"class_name": "GlorotUniform", "config": {"seed": null}}, "depthwise_regularizer": null, "pointwise_regularizer": null, "depthwise_constraint": null, "pointwise_constraint": null}, "name": "separable_conv2d_51", "inbound_nodes": [[["activation_56", 0, 0, {}]]]}, {"class_name": "BatchNormalization", "config": {"name": "batch_normalization_61", "trainable": true, "dtype": "float32", "axis": [3], "momentum": 0.99, "epsilon": 0.001, "center": true, "scale": true, "beta_initializer": {"class_name": "Zeros", "config": {}}, "gamma_initializer": {"class_name": "Ones", "config": {}}, "moving_mean_initializer": {"class_name": "Zeros", "config": {}}, "moving_variance_initializer": {"class_name": "Ones", "config": {}}, "beta_regularizer": null, "gamma_regularizer": null, "beta_constraint": null, "gamma_constraint": null}, "name": "batch_normalization_61", "inbound_nodes": [[["separable_conv2d_51", 0, 0, {}]]]}, {"class_name": "Activation", "config": {"name": "activation_57", "trainable": true, "dtype": "float32", "activation": "relu"}, "name": "activation_57", "inbound_nodes": [[["batch_normalization_61", 0, 0, {}]]]}, {"class_name": "SeparableConv2D", "config": {"name": "separable_conv2d_52", "trainable": true, "dtype": "float32", "filters": 512, "kernel_size": [3, 3], "strides": [1, 1], "padding": "same", "data_format": "channels_last", "dilation_rate": [1, 1], "groups": 1, "activation": "linear", "use_bias": true, "depthwise_initializer": {"class_name": "GlorotUniform", "config": {"seed": null}}, "bias_initializer": {"class_name": "Zeros", "config": {}, "shared_object_id": 128}, "depthwise_regularizer": null, "bias_regularizer": null, "activity_regularizer": null, "depthwise_constraint": null, "bias_constraint": null, "depth_multiplier": 1, "depthwise_initializer": {"class_name": "GlorotUniform", "config": {"seed": null}}, "pointwise_initializer": {"class_name": "GlorotUniform", "config": {"seed": null}}, "depthwise_regularizer": null, "pointwise_regularizer": null, "depthwise_constraint": null, "pointwise_constraint": null}, "name": "separable_conv2d_52", "inbound_nodes": [[["activation_57", 0, 0, {}]]]}, {"class_name": "BatchNormalization", "config": {"name": "batch_normalization_62", "trainable": true, "dtype": "float32", "axis": [3], "momentum": 0.99, "epsilon": 0.001, "center": true, "scale": true, "beta_initializer": {"class_name": "Zeros", "config": {}}, "gamma_initializer": {"class_name": "Ones", "config": {}}, "moving_mean_initializer": {"class_name": "Zeros", "config": {}}, "moving_variance_initializer": {"class_name": "Ones", "config": {}}, "beta_regularizer": null, "gamma_regularizer": null, "beta_constraint": null, "gamma_constraint": null}, "name": "batch_normalization_62", "inbound_nodes": [[["separable_conv2d_52", 0, 0, {}]]]}, {"class_name": "Add", "config": {"name": "add_28", "trainable": true, "dtype": "float32"}, "name": "add_28", "inbound_nodes": [[["batch_normalization_62", 0, 0, {}], ["add_27", 0, 0, {}]]]}, {"class_name": "Activation", "config": {"name": "activation_58", "trainable": true, "dtype": "float32", "activation": "relu"}, "name": "activation_58", "inbound_nodes": [[["add_28", 0, 0, {}]]]}, {"class_name": "SeparableConv2D", "config": {"name": "separable_conv2d_53", "trainable": true, "dtype": "float32", "filters": 512, "kernel_size": [3, 3], "strides": [1, 1], "padding": "same", "data_format": "channels_last", "dilation_rate": [1, 1], "groups": 1, "activation": "linear", "use_bias": true, "depthwise_initializer": {"class_name": "GlorotUniform", "config": {"seed": null}}, "bias_initializer": {"class_name": "Zeros", "config": {}, "shared_object_id": 140}, "depthwise_regularizer": null, "bias_regularizer": null, "activity_regularizer": null, "depthwise_constraint": null, "bias_constraint": null, "depth_multiplier": 1, "depthwise_initializer": {"class_name": "GlorotUniform", "config": {"seed": null}}, "pointwise_initializer": {"class_name": "GlorotUniform", "config": {"seed": null}}, "depthwise_regularizer": null, "pointwise_regularizer": null, "depthwise_constraint": null, "pointwise_constraint": null}, "name": "separable_conv2d_53", "inbound_nodes": [[["activation_58", 0, 0, {}]]]}, {"class_name": "BatchNormalization", "config": {"name": "batch_normalization_63", "trainable": true, "dtype": "float32", "axis": [3], "momentum": 0.99, "epsilon": 0.001, "center": true, "scale": true, "beta_initializer": {"class_name": "Zeros", "config": {}}, "gamma_initializer": {"class_name": "Ones", "config": {}}, "moving_mean_initializer": {"class_name": "Zeros", "config": {}}, "moving_variance_initializer": {"class_name": "Ones", "config": {}}, "beta_regularizer": null, "gamma_regularizer": null, "beta_constraint": null, "gamma_constraint": null}, "name": "batch_normalization_63", "inbound_nodes": [[["separable_conv2d_53", 0, 0, {}]]]}, {"class_name": "MaxPooling2D", "config": {"name": "max_pooling2d_29", "trainable": true, "dtype": "float32", "pool_size": [3, 3], "padding": "same", "strides": [1, 1], "data_format": "channels_last"}, "name": "max_pooling2d_29", "inbound_nodes": [[["batch_normalization_63", 0, 0, {}]]]}, {"class_name": "Conv2D", "config": {"name": "conv2d_29", "trainable": true, "dtype": "float32", "filters": 512, "kernel_size": [3, 3], "strides": [1, 1], "padding": "same", "data_format": "channels_last", "dilation_rate": [1, 1], "groups": 1, "activation": "linear", "use_bias": true, "depthwise_initializer": {"class_name": "GlorotUniform", "config": {"seed": null}}, "bias_initializer": {"class_name": "Zeros", "config": {}}, "depthwise_regularizer": null, "bias_regularizer": null, "activity_regularizer": null, "depthwise_constraint": null, "bias_constraint": null}, "name": "conv2d_29", "inbound_nodes": [[["add_28", 0, 0, {}]]]}, {"class_name": "Add", "config": {"name": "add_29", "trainable": true, "dtype": "float32"}, "name": "add_29", "inbound_nodes": [[["max_pooling2d_29", 0, 0, {}], ["conv2d_29", 0, 0, {}]]]}, {"class_name": "SeparableConv2D", "config": {"name": "separable_conv2d_54", "trainable": true, "dtype": "float32", "filters": 768, "kernel_size": [3, 3], "strides": [1, 1], "padding": "same", "data_format": "channels_last", "dilation_rate": [1, 1], "groups": 1, "activation": "linear", "use_bias": true, "depthwise_initializer": {"class_name": "GlorotUniform", "config": {"seed": null}}, "bias_initializer": {"class_name": "Zeros", "config": {}, "shared_object_id": 155}, "depthwise_regularizer": null, "bias_regularizer": null, "activity_regularizer": null, "depthwise_constraint": null, "bias_constraint": null, "depth_multiplier": 1, "depthwise_initializer": {"class_name": "GlorotUniform", "config": {"seed": null}}, "pointwise_initializer": {"class_name": "GlorotUniform", "config": {"seed": null}}, "depthwise_regularizer": null, "pointwise_regularizer": null, "depthwise_constraint": null, "pointwise_constraint": null}, "name": "separable_conv2d_54", "inbound_nodes": [[["add_29", 0, 0, {}]]]}, {"class_name": "BatchNormalization", "config": {"name": "batch_normalization_64", "trainable": true, "dtype": "float32", "axis": [3], "momentum": 0.99, "epsilon": 0.001, "center": true, "scale": true, "beta_initializer": {"class_name": "Zeros", "config": {}}, "gamma_initializer": {"class_name": "Ones", "config": {}}, "moving_mean_initializer": {"class_name": "Zeros", "config": {}}, "moving_variance_initializer": {"class_name": "Ones", "config": {}}, "beta_regularizer": null, "gamma_regularizer": null, "beta_constraint": null, "gamma_constraint": null}, "name": "batch_normalization_64", "inbound_nodes": [[["separable_conv2d_54", 0, 0, {}]]]}, {"class_name": "Activation", "config": {"name": "activation_59", "trainable": true, "dtype": "float32", "activation": "relu"}, "name": "activation_59", "inbound_nodes": [[["batch_normalization_64", 0, 0, {}]]]}, {"class_name": "GlobalAveragePooling2D", "config": {"name": "global_average_pooling2d_4", "trainable": true, "dtype": "float32", "data_format": "channels_last", "keepdims": false}, "name": "global_average_pooling2d_4", "inbound_nodes": [[["activation_59", 0, 0, {}]]]}, {"class_name": "Dropout", "config": {"name": "dropout_4", "trainable": true, "dtype": "float32", "rate": 0.1, "noise_shape": null, "seed": null}, "name": "dropout_4", "inbound_nodes": [[["global_average_pooling2d_4", 0, 0, {}]]]}, {"class_name": "Dense", "config": {"name": "dense_4", "trainable": true, "dtype": "float32", "units": 5, "activation": "softmax", "use_bias": true, "depthwise_initializer": {"class_name": "GlorotUniform", "config": {"seed": null}}, "bias_initializer": {"class_name": "Zeros", "config": {}}, "depthwise_regularizer": null, "bias_regularizer": null, "activity_regularizer": null, "depthwise_constraint": null, "bias_constraint": null}, "name": "dense_4", "inbound_nodes": [[["dropout_4", 0, 0, {}]]]}], "input_layers": [["input_5", 0, 0]], "output_layers": [["dense_4", 0, 0]]}}, "training_config": {"loss": {"class_name": "SparseCategoricalCrossentropy", "config": {"reduction": "auto", "name": "sparse_categorical_crossentropy", "from_logits": true, "ignore_class": null}}, "metrics": [[{"class_name": "MeanMetricWrapper", "config": {"name": "accuracy", "dtype": "float32", "fn": "sparse_categorical_accuracy"}}]], "weighted_metrics": null, "loss_weights": null, "optimizer_config": {"class_name": "Custom>SGD", "config": {"name": "SGD", "weight_decay": null, "clipnorm": null, "global_clipnorm": null, "clipvalue": null, "use_ema": false, "ema_momentum": 0.99, "ema_overwrite_frequency": null, "jit_compile": false, "is_legacy_optimizer": false, "learning_rate": 0.009999999776482582, "momentum": 0.0, "nesterov": false}}}}, "weightsManifest": [{"paths": ["group1-shard1of7.bin", "group1-shard2of7.bin", "group1-shard3of7.bin", "group1-shard4of7.bin", "group1-shard5of7.bin", "group1-shard6of7.bin", "group1-shard7of7.bin"], "weights": [{"name": "batch_normalization_52/gamma", "shape": [32], "dtype": "float32"}, {"name": "batch_normalization_52/beta", "shape": [32], "dtype": "float32"}, {"name": "batch_normalization_52/moving_mean", "shape": [32], "dtype": "float32"}, {"name": "batch_normalization_52/moving_variance", "shape": [32], "dtype": "float32"}, {"name": "batch_normalization_53/gamma", "shape": [64], "dtype": "float32"}, {"name": "batch_normalization_53/beta", "shape": [64], "dtype": "float32"}, {"name": "batch_normalization_53/moving_mean", "shape": [64], "dtype": "float32"}, {"name": "batch_normalization_53/moving_variance", "shape": [64], "dtype": "float32"}, {"name": "batch_normalization_54/gamma", "shape": [128], "dtype": "float32"}, {"name": "batch_normalization_54/beta", "shape": [128], "dtype": "float32"}, {"name": "batch_normalization_54/moving_mean", "shape": [128], "dtype": "float32"}, {"name": "batch_normalization_54/moving_variance", "shape": [128], "dtype": "float32"}, {"name": "batch_normalization_55/gamma", "shape": [256], "dtype": "float32"}, {"name": "batch_normalization_55/beta", "shape": [256], "dtype": "float32"}, {"name": "batch_normalization_55/moving_mean", "shape": [256], "dtype": "float32"}, {"name": "batch_normalization_55/moving_variance", "shape": [256], "dtype": "float32"}, {"name": "batch_normalization_56/gamma", "shape": [512], "dtype": "float32"}, {"name": "batch_normalization_56/beta", "shape": [512], "dtype": "float32"}, {"name": "batch_normalization_56/moving_mean", "shape": [512], "dtype": "float32"}, {"name": "batch_normalization_56/moving_variance", "shape": [512], "dtype": "float32"}, {"name": "batch_normalization_57/gamma", "shape": [512], "dtype": "float32"}, {"name": "batch_normalization_57/beta", "shape": [512], "dtype": "float32"}, {"name": "batch_normalization_57/moving_mean", "shape": [512], "dtype": "float32"}, {"name": "batch_normalization_57/moving_variance", "shape": [512], "dtype": "float32"}, {"name": "batch_normalization_58/gamma", "shape": [512], "dtype": "float32"}, {"name": "batch_normalization_58/beta", "shape": [512], "dtype": "float32"}, {"name": "batch_normalization_58/moving_mean", "shape": [512], "dtype": "float32"}, {"name": "batch_normalization_58/moving_variance", "shape": [512], "dtype": "float32"}, {"name": "batch_normalization_59/gamma", "shape": [512], "dtype": "float32"}, {"name": "batch_normalization_59/beta", "shape": [512], "dtype": "float32"}, {"name": "batch_normalization_59/moving_mean", "shape": [512], "dtype": "float32"}, {"name": "batch_normalization_59/moving_variance", "shape": [512], "dtype": "float32"}, {"name": "batch_normalization_60/gamma", "shape": [512], "dtype": "float32"}, {"name": "batch_normalization_60/beta", "shape": [512], "dtype": "float32"}, {"name": "batch_normalization_60/moving_mean", "shape": [512], "dtype": "float32"}, {"name": "batch_normalization_60/moving_variance", "shape": [512], "dtype": "float32"}, {"name": "batch_normalization_61/gamma", "shape": [512], "dtype": "float32"}, {"name": "batch_normalization_61/beta", "shape": [512], "dtype": "float32"}, {"name": "batch_normalization_61/moving_mean", "shape": [512], "dtype": "float32"}, {"name": "batch_normalization_61/moving_variance", "shape": [512], "dtype": "float32"}, {"name": "batch_normalization_62/gamma", "shape": [512], "dtype": "float32"}, {"name": "batch_normalization_62/beta", "shape": [512], "dtype": "float32"}, {"name": "batch_normalization_62/moving_mean", "shape": [512], "dtype": "float32"}, {"name": "batch_normalization_62/moving_variance", "shape": [512], "dtype": "float32"}, {"name": "batch_normalization_63/gamma", "shape": [512], "dtype": "float32"}, {"name": "batch_normalization_63/beta", "shape": [512], "dtype": "float32"}, {"name": "batch_normalization_63/moving_mean", "shape": [512], "dtype": "float32"}, {"name": "batch_normalization_63/moving_variance", "shape": [512], "dtype": "float32"}, {"name": "batch_normalization_64/gamma", "shape": [768], "dtype": "float32"}, {"name": "batch_normalization_64/beta", "shape": [768], "dtype": "float32"}, {"name": "batch_normalization_64/moving_mean", "shape": [768], "dtype": "float32"}, {"name": "batch_normalization_64/moving_variance", "shape": [768], "dtype": "float32"}, {"name": "conv2d_24/kernel", "shape": [3, 3, 3, 32], "dtype": "float32"}, {"name": "conv2d_24/bias", "shape": [32], "dtype": "float32"}, {"name": "conv2d_25/kernel", "shape": [3, 3, 32, 64], "dtype": "float32"}, {"name": "conv2d_25/bias", "shape": [64], "dtype": "float32"}, {"name": "conv2d_26/kernel", "shape": [3, 3, 64, 128], "dtype": "float32"}, {"name": "conv2d_26/bias", "shape": [128], "dtype": "float32"}, {"name": "conv2d_27/kernel", "shape": [3, 3, 128, 256], "dtype": "float32"}, {"name": "conv2d_27/bias", "shape": [256], "dtype": "float32"}, {"name": "conv2d_28/kernel", "shape": [3, 3, 256, 512], "dtype": "float32"}, {"name": "conv2d_28/bias", "shape": [512], "dtype": "float32"}, {"name": "conv2d_29/kernel", "shape": [3, 3, 512, 512], "dtype": "float32"}, {"name": "conv2d_29/bias", "shape": [512], "dtype": "float32"}, {"name": "dense_4/kernel", "shape": [768, 5], "dtype": "float32"}, {"name": "dense_4/bias", "shape": [5], "dtype": "float32"}, {"name": "separable_conv2d_44/depthwise_kernel", "shape": [3, 3, 64, 1], "dtype": "float32"}, {"name": "separable_conv2d_44/pointwise_kernel", "shape": [1, 1, 64, 128], "dtype": "float32"}, {"name": "separable_conv2d_44/bias", "shape": [128], "dtype": "float32"}, {"name": "separable_conv2d_45/depthwise_kernel", "shape": [3, 3, 128, 1], "dtype": "float32"}, {"name": "separable_conv2d_45/pointwise_kernel", "shape": [1, 1, 128, 256], "dtype": "float32"}, {"name": "separable_conv2d_45/bias", "shape": [256], "dtype": "float32"}, {"name": "separable_conv2d_46/depthwise_kernel", "shape": [3, 3, 256, 1], "dtype": "float32"}, {"name": "separable_conv2d_46/pointwise_kernel", "shape": [1, 1, 256, 512], "dtype": "float32"}, {"name": "separable_conv2d_46/bias", "shape": [512], "dtype": "float32"}, {"name": "separable_conv2d_47/depthwise_kernel", "shape": [3, 3, 512, 1], "dtype": "float32"}, {"name": "separable_conv2d_47/pointwise_kernel", "shape": [1, 1, 512, 512], "dtype": "float32"}, {"name": "separable_conv2d_47/bias", "shape": [512], "dtype": "float32"}, {"name": "separable_conv2d_48/depthwise_kernel", "shape": [3, 3, 512, 1], "dtype": "float32"}, {"name": "separable_conv2d_48/pointwise_kernel", "shape": [1, 1, 512, 512], "dtype": "float32"}, {"name": "separable_conv2d_48/bias", "shape": [512], "dtype": "float32"}, {"name": "separable_conv2d_49/depthwise_kernel", "shape": [3, 3, 512, 1], "dtype": "float32"}, {"name": "separable_conv2d_49/pointwise_kernel", "shape": [1, 1, 512, 512], "dtype": "float32"}, {"name": "separable_conv2d_49/bias", "shape": [512], "dtype": "float32"}, {"name": "separable_conv2d_50/depthwise_kernel", "shape": [3, 3, 512, 1], "dtype": "float32"}, {"name": "separable_conv2d_50/pointwise_kernel", "shape": [1, 1, 512, 512], "dtype": "float32"}, {"name": "separable_conv2d_50/bias", "shape": [512], "dtype": "float32"}, {"name": "separable_conv2d_51/depthwise_kernel", "shape": [3, 3, 512, 1], "dtype": "float32"}, {"name": "separable_conv2d_51/pointwise_kernel", "shape": [1, 1, 512, 512], "dtype": "float32"}, {"name": "separable_conv2d_51/bias", "shape": [512], "dtype": "float32"}, {"name": "separable_conv2d_52/depthwise_kernel", "shape": [3, 3, 512, 1], "dtype": "float32"}, {"name": "separable_conv2d_52/pointwise_kernel", "shape": [1, 1, 512, 512], "dtype": "float32"}, {"name": "separable_conv2d_52/bias", "shape": [512], "dtype": "float32"}, {"name": "separable_conv2d_53/depthwise_kernel", "shape": [3, 3, 512, 1], "dtype": "float32"}, {"name": "separable_conv2d_53/pointwise_kernel", "shape": [1, 1, 512, 512], "dtype": "float32"}, {"name": "separable_conv2d_53/bias", "shape": [512], "dtype": "float32"}, {"name": "separable_conv2d_54/depthwise_kernel", "shape": [3, 3, 512, 1], "dtype": "float32"}, {"name": "separable_conv2d_54/pointwise_kernel", "shape": [1, 1, 512, 768], "dtype": "float32"}, {"name": "separable_conv2d_54/bias", "shape": [768], "dtype": "float32"}]}]}
